nohup: ignoring input
Files already downloaded and verified
=> creating model 'allconv'
DataParallel(
  (module): AllConvNet(
    (features): Sequential(
      (0): Conv2d(3, 96, kernel_size=(3, 3), stride=(1, 1), padding=(1, 1))
      (1): BatchNorm2d(96, eps=1e-05, momentum=0.1, affine=True, track_running_stats=True)
      (2): GELU()
      (3): Conv2d(96, 96, kernel_size=(3, 3), stride=(1, 1), padding=(1, 1))
      (4): BatchNorm2d(96, eps=1e-05, momentum=0.1, affine=True, track_running_stats=True)
      (5): GELU()
      (6): Conv2d(96, 96, kernel_size=(3, 3), stride=(1, 1), padding=(1, 1))
      (7): BatchNorm2d(96, eps=1e-05, momentum=0.1, affine=True, track_running_stats=True)
      (8): GELU()
      (9): MaxPool2d(kernel_size=2, stride=2, padding=0, dilation=1, ceil_mode=False)
      (10): Dropout(p=0.5, inplace=False)
      (11): Conv2d(96, 192, kernel_size=(3, 3), stride=(1, 1), padding=(1, 1))
      (12): BatchNorm2d(192, eps=1e-05, momentum=0.1, affine=True, track_running_stats=True)
      (13): GELU()
      (14): Conv2d(192, 192, kernel_size=(3, 3), stride=(1, 1), padding=(1, 1))
      (15): BatchNorm2d(192, eps=1e-05, momentum=0.1, affine=True, track_running_stats=True)
      (16): GELU()
      (17): Conv2d(192, 192, kernel_size=(3, 3), stride=(1, 1), padding=(1, 1))
      (18): BatchNorm2d(192, eps=1e-05, momentum=0.1, affine=True, track_running_stats=True)
      (19): GELU()
      (20): MaxPool2d(kernel_size=2, stride=2, padding=0, dilation=1, ceil_mode=False)
      (21): Dropout(p=0.5, inplace=False)
      (22): Conv2d(192, 192, kernel_size=(3, 3), stride=(1, 1))
      (23): BatchNorm2d(192, eps=1e-05, momentum=0.1, affine=True, track_running_stats=True)
      (24): GELU()
      (25): Conv2d(192, 192, kernel_size=(1, 1), stride=(1, 1), padding=(1, 1))
      (26): BatchNorm2d(192, eps=1e-05, momentum=0.1, affine=True, track_running_stats=True)
      (27): GELU()
      (28): Conv2d(192, 192, kernel_size=(1, 1), stride=(1, 1), padding=(1, 1))
      (29): BatchNorm2d(192, eps=1e-05, momentum=0.1, affine=True, track_running_stats=True)
      (30): GELU()
      (31): AvgPool2d(kernel_size=8, stride=8, padding=0)
    )
    (classifier): Linear(in_features=192, out_features=10, bias=True)
  )
)
the number of model parameters: 1409674
epochs:  [8, 16, 96]
sigmas:  [2.0, 1.0, 0.0]
kernels:  [13.0, 7.0, 1.0]
[  8  24 120]

Restoring 0.2 weights to the initial weights
Test (on val set): [0/120][0/79]	Time 1.514 (1.514)	Loss 2.3024 (2.3024)	Top 1-acc 13.2812 (13.2812)	
* Epoch: [0/120]	 Top 1-acc 10.000 	 Test Loss 2.303
Epoch 0, kernel = [13.], sigma = [2.], weights = [1.]
…
